models/model.pth (torch, 10741 bytes, 13 tensors)

feature.0.weight f4 [32, 4]
0	0xbc09e151	-0.008415536
1	0x3e8571ae	0.26063293
2	0xbecb57e0	-0.3971548
3	0xbeb73091	-0.3577924
4	0xbe1f498b	-0.15555398
5	0x3de955d2	0.11393322
6	0xbd5328c0	-0.051552534
7	0x3ecc99ea	0.39961177
8	0xbd5d5464	-0.05403556
9	0x3d4dc4a4	0.05023636
10	0xbe5c30ee	-0.2150304
11	0xbdaf29b5	-0.08552877
12	0xbed2a3f5	-0.41140714
13	0xbebd1f67	-0.3693802
14	0xbe68bc8d	-0.22728176
15	0x3cdd3a9d	0.027005488
16	0x3e2d059e	0.16896674
17	0x3e9ce850	0.3064599
18	0xbea056cd	-0.31316224
19	0xbe6c1ff6	-0.23059067
20	0x3e424d77	0.18974863
21	0x3ebf1d25	0.37326923
22	0xbe153db9	-0.14574327
23	0x3ebefb9e	0.37301344
24	0xbd996f92	-0.074919835
25	0x3cdee404	0.027208336
26	0x3ed909c9	0.42390278
27	0xbeee70bf	-0.46570393
28	0xbea116fa	-0.31462842
29	0xbe160b02	-0.14652637
30	0xbe5ce9a4	-0.21573502
31	0x3ec8e631	0.39238122
32	0xbe831989	-0.2560542
33	0xbe656254	-0.2240079
34	0xbecc0594	-0.39848006
35	0xbee556d2	-0.447928
36	0xbe8371b9	-0.256727
37	0x3eed31fa	0.46327192
38	0x3e203bb6	0.15647778
39	0x3e6589f4	0.22415906
40	0x3d063d28	0.032773167
41	0xbe636363	-0.22205882
42	0x3dec6afd	0.11543844
43	0xbeeab69c	-0.45842445
44	0xbea5bf48	-0.323725
45	0xbe8dbe8b	-0.27684435
46	0x3ea51116	0.32239598
47	0x3e8aec3c	0.27133358
48	0xbe4f4f26	-0.20245036
49	0xbc9b773d	-0.018977756
50	0x3ea82bdf	0.3284597
51	0x3ef3260d	0.47489968
52	0x3e01cb0b	0.12675111
53	0x3d9f4a39	0.07777829
54	0x3ead5411	0.338532
55	0xbe9ac6b1	-0.30229715
56	0x3d96e1eb	0.07367309
57	0xbebb8614	-0.3662573
58	0xbeac7ddc	-0.33689773
59	0xbe892df9	-0.26792887
60	0x3e6edef3	0.23327236
61	0x3de1cf84	0.110259086
62	0xbe9cdca5	-0.30637088
63	0x3e5fb6ee	0.21847126
64	0x3e8878df	0.26654717
65	0xbd8c5ecb	-0.06854018
66	0xbcaf00d2	-0.021362696
67	0x3dd925ee	0.10602938
68	0x3e9f237b	0.31081757
69	0x3eee422a	0.46534854
70	0xbebf439e	-0.37356275
71	0xbe215b2b	-0.15757434
72	0x3e4408b8	0.19143951
73	0x3ec9f687	0.39445898
74	0x3ed88a40	0.42292976
75	0x3edd3316	0.43203038
76	0x3e0c04b2	0.13673666
77	0xbee28a0f	-0.44245955
78	0xbc866f22	-0.016410414
79	0xbe840ee5	-0.25792614
80	0xbee91062	-0.45520312
81	0x3edbcd39	0.4293001
82	0x3eb7aa4e	0.3587212
83	0xbef9cdfa	-0.4878996
84	0x3d1580b6	0.0364997
85	0xbc821c5a	-0.01588266
86	0xbd15e4a7	-0.036595013
87	0xbe86e656	-0.26347607
88	0x3e913ff2	0.283691
89	0xbe9e328f	-0.30897948
90	0x3d6d879e	0.057990663
91	0x3e867937	0.26264355
92	0x3ea74cb2	0.326757
93	0x3e2d0efd	0.16900249
94	0xbef73acb	-0.48287043
95	0xbeace71d	-0.33770075
96	0x3e8bde79	0.2731817
97	0x3dc36612	0.09540953
98	0xbebab4b7	-0.36466
99	0xbe8a184e	-0.26971668
100	0x3ee5a7a1	0.44854453
101	0x3ea9013f	0.33008763
102	0xbe576df3	-0.21038036
103	0xbe0ff2cd	-0.14057465
104	0xbecd80e2	-0.40137392
105	0xbda96c1e	-0.08272575
106	0xbeeda06f	-0.46411464
107	0xbeb19981	-0.34687427
108	0xbd015275	-0.031572778
109	0x3d3f1b57	0.046656933
110	0xbe555273	-0.20832233
111	0x3e937447	0.2879965
112	0xbe9b8277	-0.30372974
113	0x3eda49ff	0.4263458
114	0x3ea8552b	0.32877478
115	0xbed64796	-0.4185149
116	0xbd82ab0d	-0.063802816
117	0xbc90bbb0	-0.017667621
118	0x3de4b2fb	0.1116695
119	0x3e23723b	0.15961544
120	0x3e4d39e3	0.20041613
121	0x3c9a5f63	0.018844312
122	0xbe5aa263	-0.21351008
123	0x3e79f736	0.2441071
124	0xbeefa6c7	-0.4680693
125	0xbe975eae	-0.29564422
126	0xbe06f4e4	-0.13179356
127	0xbe591cfa	-0.2120246

feature.0.bias f4 [32]
0	0xbe2d8907	-0.16946803
1	0xbecb23ea	-0.39675838
2	0xbdd32326	-0.103094384
3	0x3dd4341e	0.10361503
4	0xbea193d0	-0.31558084
5	0xbccb858c	-0.024843954
6	0x3eb1514b	0.34632334
7	0xbd4bda20	-0.049768567
8	0x3c5c85c7	0.013459629
9	0xbd2b676c	-0.041846678
10	0x3dc88e4b	0.09792765
11	0x3e9d93b4	0.3077675
12	0x3eeb11c8	0.45912004
13	0x3e9d6064	0.30737603
14	0x3eeb9fd2	0.4602037
15	0xbd0fa8cb	-0.035073083
16	0xbede9776	-0.4347493
17	0xbe6b4d4e	-0.22978708
18	0x3ea91d20	0.33030033
19	0xbb4dbb99	-0.0031392334
20	0xbe7655dd	-0.24056192
21	0xbebe3c3f	-0.3715534
22	0xbee82710	-0.45342302
23	0xbed16205	-0.40895095
24	0xbdc905a2	-0.098155275
25	0x3e87efc9	0.2655013
26	0x3e85f2e9	0.26161888
27	0xbeef6ec1	-0.46764186
28	0x3e9a7d90	0.30173922
29	0xbec24b71	-0.37948182
30	0xbdd1cd18	-0.10244197
31	0xbe48eb4e	-0.19621012

feature.1.weight f4 [32]
0	0x3f78d4b3	0.97199553
1	0x3f79cfc6	0.9758266
2	0x3f7a1828	0.9769311
3	0x3f76f9a5	0.9647468
4	0x3f7a99d0	0.9789095
5	0x3f774494	0.96589017
6	0x3f75633e	0.95854557
7	0x3f759ba8	0.9594064
8	0x3f778ecd	0.9670227
9	0x3f78f8bb	0.9725453
10	0x3f7932b7	0.9734301
11	0x3f7843f0	0.96978664
12	0x3f7aef7a	0.9802166
13	0x3f74a0cc	0.95557857
14	0x3f787df3	0.97067183
15	0x3f78f67e	0.9725112
16	0x3f7af296	0.98026407
17	0x3f79baa7	0.97550434
18	0x3f77d019	0.96801907
19	0x3f780e54	0.96896863
20	0x3f767a99	0.9628082
21	0x3f793aff	0.97355646
22	0x3f77cb58	0.9679465
23	0x3f76c09a	0.96387637
24	0x3f7b93bd	0.98272306
25	0x3f7639a4	0.961817
26	0x3f756645	0.95859176
27	0x3f7704f4	0.9649193
28	0x3f73021e	0.94925106
29	0x3f79e83a	0.97619975
30	0x3f78f8f9	0.972549
31	0x3f74fde3	0.956999

feature.1.bias f4 [32]
0	0x3bcb7763	0.0062093004
1	0x3bb4f57d	0.0055224285
2	0x3cac937c	0.02106642
3	0xbb702bdd	-0.0036647238
4	0x3d09bfd2	0.0336302
5	0x3c41637b	0.011803503
6	0xbbf6f81a	-0.0075369
7	0xbb51d7d6	-0.0032019517
8	0x3c305017	0.010761282
9	0x3c9fc994	0.0195053
10	0x39a484b7	0.00031379398
11	0x3d38f12e	0.045151882
12	0x3cd12287	0.02552916
13	0x3c1b012f	0.009460731
14	0x3accdd6c	0.0015629954
15	0x3bc8188b	0.0061064414
16	0x3c0ce991	0.008600608
17	0xbcf3690a	-0.029713172
18	0x3b2b1075	0.0026102338
19	0x3b914a42	0.004433901
20	0xbc85246f	-0.016252724
21	0x3c6d12b5	0.014469792
22	0x3c06682e	0.008203549
23	0x3ca1bec6	0.019744288
24	0x3d0d3464	0.03447379
25	0x3c559291	0.013035432
26	0xbc6472d0	-0.013943389
27	0xb992a0bd	-0.0002796705
28	0xbce39627	-0.02778156
29	0x3cc016e5	0.023448417
30	0x3b3e2dec	0.002901907
31	0xbc3d7c82	-0.0115653295

feature.1.running_mean f4 [32]
0	0xbe5d900e	-0.21636984
1	0xbebdb913	-0.37055263
2	0xbdec5bd9	-0.11540956
3	0x3db35342	0.087561145
4	0xbea9488a	-0.33063155
5	0x3ce76f7a	0.028251398
6	0x3e857c2c	0.26071298
7	0xbcb3a1e4	-0.021927781
8	0xbd3b05c1	-0.045659784
9	0xbda28a3c	-0.07936522
10	0x3d5aa302	0.053378113
11	0x3e9d0fd5	0.3067614
12	0x3ef72700	0.48271942
13	0x3e88d931	0.26728204
14	0x3ef0f75a	0.47063714
15	0x3cd54ee1	0.026038589
16	0xbec46b39	-0.38363054
17	0xbe67006c	-0.22558755
18	0x3ebc7f10	0.3681569
19	0x3c0feae5	0.008784031
20	0xbecba882	-0.39777
21	0xbecbb82f	-0.39788958
22	0xbebcd783	-0.36883172
23	0xbece78da	-0.40326577
24	0xbdb956ea	-0.09049781
25	0x3e94e7d9	0.29083136
26	0x3e43d390	0.19123673
27	0xbedc4266	-0.43019408
28	0x3e316006	0.17321786
29	0xbebda41a	-0.37039262
30	0xbd243685	-0.040091056
31	0xbe83d127	-0.25745508

feature.1.running_var f4 [32]
0	0x3eff0e11	0.4981542
1	0x3d7990c8	0.06092909
2	0x3d84c4cd	0.06482849
3	0x3e345d96	0.17613825
4	0x3eb1d0aa	0.3472951
5	0x3e3b5608	0.18294537
6	0x3ed85a04	0.42256176
7	0x3e12e59f	0.14345406
8	0x3ec82f78	0.39098716
9	0x3e5cdd79	0.2156886
10	0x3dcc0a33	0.09962883
11	0x3ed347f7	0.41265842
12	0x3ec04057	0.37549087
13	0x3e13bbbf	0.14427088
14	0x3e6340ac	0.22192639
15	0x3e8154b2	0.2525993
16	0x3e00ff78	0.12597454
17	0x3f079863	0.529669
18	0x3eb69389	0.35659435
19	0x3dc07f6b	0.09399303
20	0x3fae7f39	1.3632575
21	0x3d7123f0	0.058872163
22	0x3ed8f5c9	0.4237502
23	0x3f144a25	0.57925636
24	0x3eac0e80	0.33604813
25	0x3eb42b3a	0.3518923
26	0x3eebdb5d	0.46065798
27	0x3d9ff2ea	0.07810004
28	0x3f79106d	0.9729069
29	0x3d37afb2	0.04484529
30	0x3e512788	0.20425236
31	0x3e7f05b9	0.24904527

feature.3.weight f4 [32, 32]
0	0xbcba36e0	-0.022731245
1	0xbd0fd018	-0.035110563
2	0xbe1dfff3	-0.15429668
3	0xbe33bede	-0.17553279
4	0xbc90020d	-0.017579103
5	0x3c5245b7	0.012834004
6	0xbdbf5fb2	-0.09344424
7	0x3d6d1682	0.057882793
8	0xbe376eba	-0.17913333
9	0xbc0ce922	-0.008600505
10	0x3df934b6	0.12168257
11	0xbdc438b5	-0.095811285
12	0x3e09911c	0.13434261
13	0x3d63d34d	0.055621434
14	0xbe168d0d	-0.14702244
15	0x3dd92bda	0.10604067
16	0xbc73b195	-0.014873882
17	0xbd88d51d	-0.06681273
18	0x3e0b27f9	0.13589467
19	0xbe132fcd	-0.14373703
20	0x3c550f8d	0.013004196
21	0xbcebe890	-0.028797418
22	0x3dce232e	0.10065304
23	0x3d819823	0.06327846
24	0x3dc8304a	0.097748354
25	0x3d947c7b	0.07250305
26	0xbd88390b	-0.06651505
27	0xbd19e4d9	-0.03757176
28	0xbe12321e	-0.1427693
29	0x3d877a33	0.066151045
30	0x3e12ca4f	0.14334987
31	0x3dbf6a3e	0.09346436
32	0xbdbf3ab8	-0.093373716
33	0x3d199622	0.037496693
34	0xbdd0d625	-0.10197095
35	0xbd8d47b7	-0.06898444
36	0xbd978ffc	-0.0740051
37	0x3d22705d	0.03965794
38	0xbdeb7911	-0.11497701
39	0xbca12908	-0.019672886
40	0x3c04c3de	0.008103339
41	0x3e0eacf5	0.13933165
42	0xbe36f248	-0.1786586
43	0xbde3ccaa	-0.11123021
44	0xbdb5d393	-0.08878245
45	0x3d929e98	0.071591556
46	0xbda5d95b	-0.08098098
47	0x3dce229b	0.10065194
48	0x3d5e6897	0.054298963
49	0x3d223c48	0.03960827
50	0x3c9ca8df	0.019123493
51	0xbd8f1365	-0.06986121
52	0x3d356ae7	0.044291403
53	0xbd193004	-0.037399307
54	0xbd0cb15f	-0.03434884
55	0x3d097306	0.03355696
56	0xbdfa5610	-0.12223446
57	0xbdbc902b	-0.09207185
58	0x3e0d634e	0.13807413
59	0xbe2f06bd	-0.17092414
60	0x3c58d129	0.013233461
61	0x3e324474	0.17408925
62	0x3d50c1ea	0.05096618
63	0x3c4fb435	0.012677242
64	0xbe1ee682	-0.15517619
65	0x3d8ffa11	0.07030118
66	0xbdffef34	-0.12496796
67	0xbd72357e	-0.059133045
68	0xbd7f890d	-0.06238656
69	0xbc919388	-0.017770544
70	0x3c997973	0.01873467
71	0x3e0b7111	0.1361735
72	0x3ca7a0be	0.02046239
73	0x3e1f93b7	0.15583692
74	0x3dec41f3	0.11536016
75	0xbdab3bb4	-0.08360997
76	0x3dc8045c	0.097664565
77	0xbdc5e86c	-0.096634716
78	0xbda10778	-0.07862753
79	0x3d8ba3fd	0.06818388
80	0x3d6ef44a	0.05833844
81	0x3e02c255	0.12769444
82	0xbd2dd987	-0.04244378
83	0x3b4a2937	0.003084732
84	0x3dafe80f	0.085891835
85	0xbe298f74	-0.1655863
86	0x3e120a44	0.14261729
87	0xbe1381fc	-0.14405054
88	0x38ebdc4b	0.00011246706
89	0xbca712c3	-0.020394688
90	0xbdb4edf0	-0.088344455
91	0x3ca39065	0.019966314
92	0x3e0c030a	0.13673034
93	0xbcd66120	-0.02616936
94	0xbdd288c7	-0.102799945
95	0xbd755bd0	-0.059902012
96	0xbe2e95c5	-0.1704932
97	0x3dae319d	0.08505557
98	0xbdac90ca	-0.08426054
99	0xbd9fe56c	-0.078074306
100	0xbdc9d533	-0.09855118
101	0x3db5f54a	0.08884676
102	0x3d96bd5f	0.073603384
103	0x3e0ab7b9	0.13546647
104	0x3d8a7d08	0.06762129
105	0xbd71d31e	-0.059039228
106	0xbd6f98f4	-0.058495477
107	0x3d3e9825	0.046531815
108	0x3e0d6af0	0.13810325
109	0x3cbfb7ab	0.02340301
110	0xbda0a49d	-0.078438975
111	0xbde0ef48	-0.10983139
112	0xbe369210	-0.17829156
113	0x3d10d383	0.035357963
114	0xbdb7782e	-0.08958469
115	0xbe1621d3	-0.1466134
116	0x3e13286b	0.14370887
117	0xbdfcd89f	-0.12346005
118	0xbd1d7a60	-0.038446784
119	0x3d2d0722	0.04224313
120	0xbaeab7b4	-0.0017907531
121	0xbe006c35	-0.12541278
122	0xbe0d744e	-0.13813898
123	0x3dfe7e61	0.124264486
124	0x3cbf5cfc	0.023359768
125	0x3e0caf61	0.13738777
126	0xbd929a89	-0.071583815
127	0x3d763605	0.06011011
128	0xbcabeb3c	-0.020986192
129	0xbcba14a9	-0.02271493
130	0xbdb7e3c1	-0.089789875
131	0x3d153efb	0.036437016
132	0x3d91b1b4	0.07113972
133	0xbcd85cc5	-0.026411423
134	0xbbc24b8d	-0.0059294165
135	0xbdbfd425	-0.09366635
136	0x3dc33309	0.095312186
137	0xbdb5a6df	-0.08869719
138	0x3d487088	0.048935443
139	0xbd886275	-0.06659404
140	0xbddbfe22	-0.10741831
141	0x3d2da730	0.04239577
142	0xbdab6094	-0.0836803
143	0x3d98768e	0.074444875
144	0x3d50f93a	0.05101893
145	0xbdede48b	-0.11615857
146	0xbd346b4d	-0.044047642
147	0x3c961303	0.018319612
148	0x3dd56c5d	0.10421059
149	0xbbc5a221	-0.00603129
150	0xbe17221a	-0.14759102
151	0x3c7a0dbc	0.015262064
152	0x3dcfdd80	0.1014967
153	0xbd20a3b8	-0.039218634
154	0x3d828057	0.06372135
155	0x3e086554	0.13319904
156	0xbd5a16fa	-0.05324457
157	0xbb9e0068	-0.004821826
158	0x3dee0a3e	0.11623047
159	0xbce2c17e	-0.027680155
160	0x3c71abc8	0.0147504285
161	0x3c9de4b7	0.019274099
162	0xbe08fd30	-0.13377833
163	0x3c2748ba	0.01021021
164	0x3df58d14	0.11989799
165	0x3e1d58f0	0.15365958
166	0x3dbe68d0	0.09297335
167	0x3cd1116d	0.025521005
168	0x3da0b118	0.07846278
169	0xbdb73ce6	-0.08947162
170	0xbe175b1d	-0.1478085
171	0xbe1c3cbd	-0.15257545
172	0x3e2c4c12	0.16825894
173	0x3dcedef6	0.1010112
174	0xbde9dd25	-0.11419133
175	0x3d916795	0.07099835
176	0x3e084b5a	0.13309994
177	0x3e2ffabb	0.1718549
178	0x3e14044c	0.14454764
179	0x3e0640ce	0.13110659
180	0xbd3a3d6c	-0.045468733
181	0xbd79abf9	-0.06095502
182	0x3e120c70	0.14262557
183	0x3dc6dd6c	0.097102016
184	0xbdd05176	-0.101717874
185	0x3e1d0fc1	0.15338041
186	0x3da68b29	0.081320114
187	0x3dcda1d1	0.1004063
188	0xbde9eb3c	-0.114218205
189	0x3d3aa718	0.04556951
190	0xbd60d792	-0.054893084
191	0x3e03a9f9	0.12857808
192	0xbcdd7b5f	-0.027036367
193	0x3d825d41	0.06365443
194	0x3d012d5e	0.031537406
195	0x3d8c7732	0.06858672
196	0xbd676e12	-0.056501456
197	0x3d87a603	0.06623461
198	0xbdf25a23	-0.118335985
199	0x3d18200a	0.03713993
200	0xbdf05d3c	-0.11736533
201	0xbe468aea	-0.19388929
202	0xbe036061	-0.12829734
203	0x3e152100	0.1456337
204	0x3dbb3380	0.09140682
205	0x3e1bf778	0.1523112
206	0x3e15183d	0.14560027
207	0xbe1e8e3f	-0.1548395
208	0xbddbe34c	-0.10736713
209	0xbcf40dec	-0.029791795
210	0xbde2fe62	-0.11083676
211	0x3dfc876c	0.12330517
212	0xbe0bc009	-0.13647474
213	0xbdba6337	-0.09100955
214	0xbe1b5db8	-0.1517247
215	0xbdb12a81	-0.08650685
216	0x3e1bce77	0.15215479
217	0x3e0e6e54	0.13909274
218	0x3df36cba	0.11885972
219	0x3e06a2fb	0.1314811
220	0x3e145242	0.14484504
221	0xbd3c751b	-0.046010118
222	0x3da66426	0.081245705
223	0x3e19d1fe	0.15021512
224	0x3d5a8327	0.053347733
225	0x3e3280f8	0.1743201
226	0x3db2173a	0.08695836
227	0x3de140cc	0.10998687
228	0xbd8973b1	-0.067115195
229	0x3d9c082e	0.07618748
230	0x3cc821ab	0.024430117
231	0xbd0858cd	-0.033287812
232	0xbdc1292b	-0.0943168
233	0xbdbd1c49	-0.092339106
234	0xbe045f0d	-0.12926884
235	0x3dfa502b	0.12222322
236	0x3e08f5de	0.13375041
237	0xbcb29c33	-0.021802997
238	0xbdcba653	-0.09943833
239	0x3e0700d9	0.13183917
240	0x3ddbee83	0.10738852
241	0x3ba4ba4b	0.0050270907
242	0xbdadf320	-0.08493638
243	0x3e1c5285	0.15265854
244	0x3d97095d	0.07374833
245	0xbe05aeaa	-0.1305491
246	0x3e2bfcbe	0.16795632
247	0x3df31c9b	0.118706904
248	0xbd966622	-0.07343699
249	0x3daeb330	0.08530271
250	0xbdbc8401	-0.09204865
251	0xbcb71660	-0.022349536
252	0x3e14ddbb	0.14537708
253	0x3c9e8b71	0.0193536
254	0xbdfaab5e	-0.12239717
255	0xbd609551	-0.0548299

feature.3.bias f4 [32]
0	0xbddf8117	-0.10913294
1	0xbe0ed1f5	-0.1394728
2	0xbd0014be	-0.03126978
3	0x3e089bb8	0.13340652
4	0x3e19790d	0.14987583
5	0xbe186af9	-0.14884557
6	0xbbf324c0	-0.0074201524
7	0x3dcdd24f	0.10049879
8	0x3d9a6354	0.075384766
9	0x3e0fd178	0.1404475
10	0xbb9b7aba	-0.0047448548
11	0xbdebd346	-0.115149066
12	0x3de812f7	0.11331742
13	0xbd70b4d6	-0.05876621
14	0x3db584ab	0.08863195
15	0xbd2cf1c8	-0.042222768
16	0x3d954210	0.07287991
17	0x3e1d9d9e	0.15392157
18	0x3e231fbb	0.15930073
19	0xbe1f8aa2	-0.15580228
20	0xbde80e50	-0.11330855
21	0xbd913c4e	-0.0709158
22	0xbddf7274	-0.10910502
23	0x3e287d77	0.16454111
24	0xbc77a175	-0.015114178
25	0xbde8baba	-0.1136374
26	0xbd9be7d7	-0.07612579
27	0xbdc1fd0b	-0.09472092
28	0x3d8f409e	0.069947466
29	0xbe18b258	-0.14911783
30	0xbe2395ca	-0.15975109
31	0xbe2cf253	-0.16889314

feature.4.weight f4 [32]
0	0x3f76fdae	0.96480834
1	0x3f778f3b	0.9670293
2	0x3f76638d	0.9624565
3	0x3f77df46	0.96825063
4	0x3f75bb45	0.95988876
5	0x3f77a624	0.96737885
6	0x3f77b113	0.9675457
7	0x3f77d662	0.968115
8	0x3f77ae16	0.9675001
9	0x3f769ad5	0.96330005
10	0x3f762d36	0.96162736
11	0x3f76abd8	0.9635596
12	0x3f769e3b	0.9633519
13	0x3f76c3f6	0.9639276
14	0x3f7577df	0.95886034
15	0x3f74747a	0.9549023
16	0x3f776fb8	0.96654844
17	0x3f776e64	0.9665282
18	0x3f76fe13	0.96481436
19	0x3f75accb	0.95966786
20	0x3f771c33	0.96527404
21	0x3f77aa36	0.96744096
22	0x3f7636df	0.96177477
23	0x3f74a021	0.9555684
24	0x3f75205a	0.9575249
25	0x3f773924	0.96571565
26	0x3f77c81d	0.96789724
27	0x3f7452c6	0.954388
28	0x3f76a323	0.96342677
29	0x3f743f40	0.9540901
30	0x3f75b1ca	0.9597441
31	0x3f76e00f	0.96435636

feature.4.bias f4 [32]
0	0x3cc898c8	0.024486914
1	0x3ceeb7d1	0.029140385
2	0xbc9fd69e	-0.019511517
3	0x3c2889fc	0.010286804
4	0x3d1e1a98	0.03859958
5	0x3ace71ea	0.0015750502
6	0x3c1148ba	0.008867437
7	0xbbef5360	-0.0073036402
8	0xbb3e5c4b	-0.002904671
9	0x3d2e2a1d	0.04252063
10	0xbc7da1a5	-0.015480434
11	0x3cd4e0c0	0.025986075
12	0x3c6dbd83	0.014510515
13	0xbc8c149d	-0.017099673
14	0x3ccced22	0.025015417
15	0x3cefa216	0.029252093
16	0xbc59c137	-0.013290695
17	0xbb48bb06	-0.0030629053
18	0x3cca17d5	0.024669567
19	0xbcb7373e	-0.022365209
20	0x3cd2f40c	0.025751136
21	0x3c09e952	0.008417444
22	0x3c90451a	0.017611075
23	0xbcdd5db2	-0.027022216
24	0xbc705358	-0.014668308
25	0x3c2ca099	0.010536336
26	0x3d37f42d	0.0449106
27	0xbd0fb7cd	-0.035087395
28	0xbb62fb9a	-0.003463483
29	0xbc7b9af9	-0.015356773
30	0xbcd8ecce	-0.026480105
31	0xbb117ef3	-0.0022200912

feature.4.running_mean f4 [32]
0	0xbe24af25	-0.16082437
1	0xbead80c5	-0.33887306
2	0xbd77607f	-0.06039476
3	0xbd2c7b65	-0.042109866
4	0x3dfa29bf	0.12214994
5	0x3e9f25e6	0.31083602
6	0x3dbb5fb7	0.091491155
7	0x3ebe8d0b	0.37216982
8	0xbda51871	-0.080613025
9	0x3de37c01	0.11107636
10	0x3e67f524	0.22652107
11	0xbe6f3c07	-0.23362742
12	0x3def5a22	0.11687113
13	0xbe18c41c	-0.1491856
14	0xbe43aeef	-0.191097
15	0x3d44b38b	0.048022788
16	0x3eac04b5	0.3359734
17	0x3e403082	0.18768504
18	0x3d8c9313	0.0686399
19	0xbeb62382	-0.35573965
20	0xbdb95135	-0.09048692
21	0xbc72ff77	-0.014831415
22	0xbd21b300	-0.03947735
23	0x3e94bb6c	0.29049242
24	0xbe20540f	-0.15657066
25	0xbe1b408f	-0.15161346
26	0xbe58fda1	-0.21190502
27	0x3d5b7b50	0.053584397
28	0x3eb47d7c	0.35251987
29	0xbf273e2e	-0.65329254
30	0xbf1346d3	-0.57529944
31	0xbf02f14a	-0.5114943

feature.4.running_var f4 [32]
0	0x3e209be8	0.15684474
1	0x3d9f637e	0.077826485
2	0x3e3dbf76	0.18530068
3	0x3e7aa7bc	0.24478048
4	0x3d96c667	0.07362061
5	0x3e0956ba	0.1341199
6	0x3dabbac2	0.083852306
7	0x3e2a6afe	0.16642377
8	0x3e433262	0.19062188
9	0x3eaa4f26	0.3326351
10	0x3dd5f8f7	0.10447877
11	0x3dc87676	0.0978822
12	0x3e348caa	0.17631784
13	0x3da1817d	0.07886026
14	0x3e0b75c4	0.13619143
15	0x3e9e8c4f	0.30966422
16	0x3df78c53	0.120873116
17	0x3e2a636d	0.1663949
18	0x3e0fca04	0.14041907
19	0x3ec193ec	0.37808168
20	0x3e203e68	0.15648806
21	0x3e0d0086	0.13769731
22	0x3dc98a47	0.098408274
23	0x3e4896b3	0.19588737
24	0x3dcd7afa	0.100332215
25	0x3de3e742	0.11128093
26	0x3e444fe1	0.19171096
27	0x3d2fd4b6	0.042927466
28	0x3e17dce2	0.14830354
29	0x3da2df52	0.07952751
30	0x3db0c5b0	0.08631456
31	0x3e67c67e	0.22634313

feature.6.weight f4 [1, 32]
0	0x3c849391	0.016183646
1	0x3da4973d	0.08036659
2	0xbd156915	-0.036477167
3	0x3d45e914	0.048317984
4	0x3d34cb18	0.044138998
5	0x3ba196bf	0.0049313004
6	0x3cc0eccf	0.02355042
7	0xbce8a620	-0.028399527
8	0x3ca7df52	0.02049223
9	0x3cbe0a47	0.02319826
10	0xbd1ee0f8	-0.038788766
11	0x3ccf083b	0.02527248
12	0x3ca278f3	0.019833064
13	0xbd7c8f71	-0.061660234
14	0x3d3d835f	0.046267863
15	0x3d89ba19	0.067249484
16	0xbd272831	-0.040809814
17	0x3cb16004	0.02165223
18	0x3d22fb34	0.039790347
19	0xbd5a217f	-0.0532546
20	0x3be5b7de	0.007010444
21	0x3cc30ede	0.0238108
22	0x3c5a8354	0.013336975
23	0xbcd59eca	-0.026076693
24	0xbcca1f25	-0.024673054
25	0xbd258bc7	-0.040416505
26	0x3da1a933	0.078936
27	0xbcf8c48d	-0.03036716
28	0xbcf51147	-0.029915465
29	0x3bf692f7	0.007524844
30	0xbced2cf0	-0.028952092
31	0x3cb75a0b	0.022381803
